0-宋学林/week2/model.pt (torch, 1191 bytes, 2 tensors)

linear.weight f4 [5, 5]
000000 18 bf 89 3d 68 90 06 be b6 b8 ae 3c e4 cf cb 3d
       0.06725901 -0.13141024 0.021328311 0.09951761
000010 04 f1 bc bd 33 06 c2 3e 53 3a c4 be 17 6a 97 3d
       -0.092256576 0.37895355 -0.38325748 0.07393282
000020 84 07 14 be a8 01 b1 3e b8 20 2c 3e 12 8a 3d 3e
       -0.14455992 0.34571576 0.16809356 0.18509701
000030 9d 14 86 3e 20 2b d5 3d 89 54 91 bc 01 ed 90 bd
       0.26187602 0.10408616 -0.017740505 -0.07076455
000040 26 96 c3 3e 01 bc 7c be 0b 5e 94 bd 39 25 df 3e
       0.38200492 -0.24681093 -0.072445 0.43583086
000050 be 6d 2e be 59 16 af 3d b3 a5 aa be 6a ca a0 3e
       -0.17034051 0.08549184 -0.33329543 0.3140443
000060 5c 16 81 bd
       -0.06303093

linear.bias f4 [5]
000000 b3 d5 6f bd 0b 5a 80 be b6 3f 53 3e 2b 32 af be
       -0.05855341 -0.25068697 0.20629773 -0.34217963
000010 5e 06 b2 bc
       -0.021731552
